…
 61 42 48 45  3 46 55 48 52 64 49 59  3 40  3 49 61 48 62  3 55 44 61 61 48
 59 62  3 44 59 44 62  3 64 44 49 61  3 47 48  3 58 40  3 58 42 48 59 64 53
  3 44 49 61  3 45 55 40  3 44 61 48 58  3 44 55 48 53 55 54  3 44 44 59 47
  3 64 61 53 40 64 54 59  3 44 49 61  3 47 54  3 61 59 54 58  3 44 52 54 58
  3 52 54 59 47  3 58 44 52 54 42  3 61 48  3 47 48  3 58 40  3 58 45 55 60
 54 58  3 42 48 58 60 52  3 44 49 61]
y:0
_________________________________________________________________
Layer (type)                 Output Shape              Param #   
=================================================================
input_2 (InputLayer)         (None, 512)               0         
_________________________________________________________________
lambda_1 (Lambda)            (None, 512, 71)           0         
_________________________________________________________________
conv1d_1 (Conv1D)            (None, 508, 196)          69776     
_________________________________________________________________
dropout_1 (Dropout)          (None, 508, 196)          0         
_________________________________________________________________
max_pooling1d_1 (MaxPooling1 (None, 254, 196)          0         
_________________________________________________________________
conv1d_2 (Conv1D)            (None, 252, 196)          115444    
_________________________________________________________________
dropout_2 (Dropout)          (None, 252, 196)          0         
_________________________________________________________________
max_pooling1d_2 (MaxPooling1 (None, 126, 196)          0         
_________________________________________________________________
conv1d_3 (Conv1D)            (None, 124, 256)          150784    
_________________________________________________________________
dropout_3 (Dropout)          (None, 124, 256)          0         
_________________________________________________________________
max_pooling1d_3 (MaxPooling1 (None, 62, 256)           0         
_________________________________________________________________
bidirectional_1 (Bidirection (None, 256)               2018-02-14 14:10:37.969386: W tensorflow/core/platform/cpu_feature_guard.cc:45] The TensorFlow library wasn't compiled to use SSE4.1 instructions, but these are available on your machine and could speed up CPU computations.
2018-02-14 14:10:37.969434: W tensorflow/core/platform/cpu_feature_guard.cc:45] The TensorFlow library wasn't compiled to use SSE4.2 instructions, but these are available on your machine and could speed up CPU computations.
…
2018-02-14 14:10:38.275377: I tensorflow/core/common_runtime/gpu/gpu_device.cc:1030] Creating TensorFlow device (/gpu:0) -> (device: 0, name: Quadro K2200, pci bus id: 0000:02:00.0)
2018-02-14 14:10:46.277406: I tensorflow/core/common_runtime/gpu/pool_allocator.cc:247] PoolAllocator: After 9447 get requests, put_count=4355 evicted_count=1000 eviction_rate=0.229621 and unsatisfied allocation rate=0.655446
2018-02-14 14:10:46.277494: I tensorflow/core/common_runtime/gpu/pool_allocator.cc:259] Raising pool_size_limit_ from 100 to 110
394240    
_________________________________________________________________
dropout_4 (Dropout)          (None, 256)               0         
=================================================================
Total params: 730,244
Trainable params: 730,244
Non-trainable params: 0
_________________________________________________________________
_________________________________________________________________
Layer (type)                 Output Shape              Param #   
=================================================================
input_1 (InputLayer)         (None, 15, 512)           0         
_________________________________________________________________
time_distributed_1 (TimeDist (None, 15, 256)           730244    
_________________________________________________________________
bidirectional_2 (Bidirection (None, 256)               394240    
_________________________________________________________________
dropout_5 (Dropout)          (None, 256)               0         
_________________________________________________________________
dense_1 (Dense)              (None, 128)               32896     
_________________________________________________________________
dropout_6 (Dropout)          (None, 128)               0         
_________________________________________________________________
dense_2 (Dense)              (None, 1)                 129       
=================================================================
Total params: 1,157,509
Trainable params: 1,157,509
Non-trainable params: 0
_________________________________________________________________
Train on 20000 samples, validate on 5000 samples
Epoch 1/5

   10/20000 [..............................] - ETA: 5:11:48 - loss: 0.6976 - acc: 0.20002018-02-14 14:10:47.692752: I tensorflow/core/common_runtime/gpu/pool_allocator.cc:247] PoolAllocator: After 3140 get requests, put_count=7150 evicted_count=4000 eviction_rate=0.559441 and unsatisfied allocation rate=0.000318471
…
